Rain-Removal/generator.pth (torch, 27104 bytes, 4 tensors)

encoder.0.weight f4 [64, 3, 4, 4]
00000000: f2ae aebc d492 87bb 1c1c 45bd 95e8 e93d
00000010: 95af 353d 0ea2 c03b 5359 c6bb 3a62 5dbd
00000020: 75f3 2fbd 1bf3 be3d 2af6 293b bc36 a43d
00000030: 544b 08bd d0e8 823d 83f6 6f3d 1a3b 0b3e
00000040: b9bc d2bd 347e d7bd 47c8 f2bc 1a44 c6bc
00000050: 79a4 8cbc 1b78 053e 63c1 ccbd 3c2e b03d
00000060: 4401 adbc 7a7e 07bd e81e bbbc 292a e1bd
00000070: a380 1c3c 7848 20bc 38a0 8f3d b7e5 ce3d
00000080: 7d5f d7bc 979b 11be 967a c7bd 1f33 80bc
00000090: 29d2 d73c b793 acbd d2dc d83d 949d 893d
000000a0: 3f64 e83d d946 b73d 49f6 88bc 8eec 6b3c
000000b0: 1013 783c 22c9 a8bd f440 893d 10fb 273c
000000c0: 2f1e 0abe 0341 0e3d de47 cbbd 0d6c 14be
000000d0: 82d7 493c 48be d13d 954b fe3d 3fe0 1dbc
000000e0: d9aa dabd f281 b93d 90df 07be dd8e 8a3d
000000f0: 35e5 9fbd 0359 debd 63e5 083e e4c9 18bd
00000100: 5072 da3d 1f80 c8bb 1f9d f43d 1c75 043e
00000110: 7a67 57bd 8b4f 0fbd d266 e3bd ddcc dbbd
00000120: 20fe ba3c 12d5 4abd f894 823d 0ef8 e1bc
00000130: e5c4 bebd 00a5 ea3d 431c 11be 8b03 e9ba
00000140: 1290 0fbb 8340 db3d 1628 563d a257 9dbd
00000150: e711 bf3c 9a36 d53d ed74 003c 0572 45bd
00000160: 56ad 823c 221f 013e 1da6 33bd ab8c b63b
00000170: 1bb5 9ebc 3f5c b03d cced 03be 44b3 42bd
00000180: 23a5 113d 45bc 503d 6507 c93c a438 073b
00000190: 268c bdbd 723b 93bd 76e9 72bd ed39 b33d
000001a0: 50a0 06be d386 7dbd cb1e e3bd 11de a7bd
000001b0: 565e c23d 032e d8bd d5e7 99bc 7b62 87bd
000001c0: b2dc 033e d036 edbd 2a62 c7bd 5334 ebbd
000001d0: 246c fbbd d155 eebd 4767 5b3b 743c abbd
000001e0: a32d a9bd f79a 96bd 5c6b d23c c4b9 f93c
000001f0: 8966 0cbe 2e32 d33d 8fa7 2cbd 184e b7bc
00000200: 0514 edbc 390a d63d 2a2a b8bd 140d b7bd
00000210: 93b1 dbbd c7cc bd3d 6148 e53d c888 61bd
00000220: 3707 723b 59aa b13d d7df 00bd f787 dc3d
00000230: 2db0 9b3c e85b 59bd 4c4f 09bd 6af0 7c3d
00000240: 1b1e e73d 3fad 04be 1b0c b93d 1651 62bd
00000250: 1c36 8b3d a549 09be a9fc d8bd 225d 513c
00000260: 5f79 fe3d 0091 f9bc e8ce e73d 4023 b93d
00000270: 9956 503d 3ac8 65bd 29b8 913d 8aff 893d
00000280: 3cad b23d 2e6d ba3d 612a 7d3c 947a a0bd
00000290: f8fe 9cbd 0f46 fbbd 2e68 a3bd c1ed 8abb
000002a0: c342 073e f17c 89bd 52d7 5a3d a793 853d
000002b0: 6e45 08be 48d2 1b3e 36da 833d 900c c73d
000002c0: f969 3abd 99ac 87bd 71e0 cc3b d153 85ba
000002d0: 5c1f 093e c448 04bd 0100 173e 9705 c53d
000002e0: 7b4d 04bc db0f acbd 9e11 e4bb c5c7 a73d
000002f0: eabb 133e c6a8 bcbd 5562 80bd f041 cabd
00000300: db55 55bb 5beb c83c 4e79 a83c 685b c53d
00000310: a0fb 90bc 1aed 5abc 4885 06be 0e57 4f3d
00000320: 37cc 1b3d a3d6 023c 173c 14be 6c82 ba3d
00000330: bb92 f33c ef6c 6a3c 93ac e03d 9c84 3a3d
00000340: 84c5 8bbd 28d3 5e3d dd99 1ebd 8af5 c23d
00000350: 9d38 bebd 0927 16be 0def babd c008 a33d
00000360: c651 b13c 891a ef3d 833c c33c d52e c83d
00000370: b974 ad3d 3d44 98bd c598 8abd ce2d 9c3d
00000380: f528 c7bd a5b1 e1bc b2f3 f0bc 54e2 f73d
00000390: e87e e7bd 8d0d 1dbe 9a7e 2a3d 150d 18be
000003a0: cf46 c03d d8db 2dbd f945 64bd 5a2f f5bd
000003b0: a810 693b abf1 643c cdf7 c03d e787 113d
000003c0: aa94 033e 2d80 0fbd bad5 99bd 166e a6bd
000003d0: 2b9a bfbd c4de 6ebd 2e97 1ebd 21f7 a83d
000003e0: 6a4b a6bd 25f0 823d 0219 d9bd c5fe b93d
000003f0: e645 acbd e949 c93d ff58 363c 4d86 9fbd
-0.021323655 -0.0041373763 -0.04812251 0.114213146 0.0443569 0.0058786934 -0.0060531287 -0.054048754
-0.042956788 0.093237124 0.0025934079 0.08018252 -0.033274963 0.06392062 0.0585847 0.13596764
-0.10289902 -0.10522118 -0.029636515 -0.024202395 -0.01716827 0.13034098 -0.09997823 0.086025685
-0.021118768 -0.0330796 -0.022841886 -0.109943695 0.009552154 -0.009782903 0.07012981 0.101024084
-0.02629065 -0.14219509 -0.09740178 -0.015649376 0.02634533 -0.08426612 0.10588993 0.06719509
0.113472454 0.0894906 -0.016719 0.014399661 0.015141264 -0.08241488 0.06701842 0.010252729
-0.13488077 0.03472997 -0.09925817 -0.14494343 0.0123194475 0.102413714 0.1241676 -0.009635984
-0.10677118 0.09057988 -0.13268876 0.0676553 -0.0780739 -0.108568214 0.13368754 -0.037301913
0.10666335 -0.006118789 0.11944031 0.12935299 -0.052588917 -0.034987967 -0.11103596 -0.10732434
0.022826254 -0.049519606 0.0637607 -0.027584102 -0.093148984 0.114572525 -0.14170937 -0.0017777545
-0.002190594 0.10705664 0.052284323 -0.0768273 0.023323966 0.10410805 0.007840377 -0.04820444
0.015951794 0.12609532 -0.04385959 0.005570968 -0.019373467 0.086113445 -0.12883681 -0.047534242
0.035557877 0.050960798 0.024539659 0.0020633126 -0.09255247 -0.07189073 -0.059304677 0.08751283
-0.13147092 -0.061896157 -0.11089858 -0.08196653 0.094906494 -0.10555651 -0.018787304 -0.066105805
0.12877157 -0.1158272 -0.0973552 -0.114845894 -0.122764856 -0.11637462 0.0033478306 -0.0836114
-0.08260658 -0.07353776 0.025685959 0.030484088 -0.13710989 0.103123054 -0.042151984 -0.022376105
-0.02894021 0.104511686 -0.08992417 -0.08938041 -0.10727229 0.09267574 0.11195446 -0.055062085
0.003693057 0.08675069 -0.03146347 0.10768121 0.019004906 -0.053066164 -0.03352289 0.061752714
0.11285039 -0.12956713 0.09035512 -0.05525311 0.0679743 -0.13407 -0.10595066 0.012778552
0.124254934 -0.03046465 0.11318761 0.090399265 0.050863836 -0.056099154 0.07115204 0.06738193
0.08724448 0.091028556 0.015451998 -0.0783588 -0.07665819 -0.12269222 -0.07978855 -0.0042397683
0.13209061 -0.06713284 0.053428 0.06522303 -0.13307735 0.15216935 0.06438105 0.09719193
-0.04551122 -0.06624717 0.0062523414 -0.0010172074 0.13390869 -0.032295957 0.14746095 0.09620207
-0.008075113 -0.08401462 -0.006960108 0.081924 0.14427152 -0.092118785 -0.06268755 -0.09875858
-0.0032552395 0.024526289 0.020565655 0.09636575 -0.01769811 -0.0133621935 -0.1313678 0.05062013
0.03803655 0.007985744 -0.14476047 0.09106907 0.029733052 0.014308198 0.10970416 0.045536622
-0.068247825 0.054400593 -0.038720954 0.09519489 -0.09288142 -0.14663328 -0.091276266 0.07960653
0.021645438 0.11674983 0.023832565 0.097745575 0.08469529 -0.074348904 -0.0676742 0.07625924
-0.09724609 -0.027550528 -0.029413078 0.121037155 -0.11303502 -0.153372 0.041624643 -0.1484874
0.09388506 -0.042445987 -0.055730794 -0.11971922 0.0035562906 0.013973634 0.09422264 0.035529997
0.1284968 -0.035034347 -0.07511468 -0.08126466 -0.09355577 -0.058317915 -0.038718395 0.08250261
-0.08119853 0.0639346 -0.10600473 0.090817966 -0.084117696 0.0982855 0.011129617 -0.07789288

encoder.0.bias f4 [64]
00000000: 3cea 773d 410e 653d bd22 17bd 7b8e 183e
00000010: 80df a2bd f711 193e 2844 bfbd 21c9 203d
00000020: 90ad 76bd 5df0 5e3d 3837 cb3d 3a49 003e
00000030: 7cb7 f3bc dcef 133e 0a52 363c 3fa3 a2bd
00000040: 21c8 15be b5fb 28be 3346 f7bd b626 b6bd
00000050: 86e8 53bd 28ef bbbd ed16 8c3d 025c 103e
00000060: a201 e2bd c179 c73d 0dd5 6a3d 194c 983d
00000070: 37c7 c8bd c0f8 75bd 70e3 ffbd d447 9dbd
00000080: 764e 843d 0ab3 f23d 75f1 cf3c 433c 9cbc
00000090: 84df b23c 588d 62bd a784 1dbd 3b8b f93d
000000a0: d9a9 97bc 15a7 f2bd 0075 5f3b ac33 ecbc
000000b0: ecce 4d3d cbd0 21be ef2c 763d 23c4 033e
000000c0: c398 153d e876 293c 1b1a 8b3d 3739 c33c
000000d0: cfde 1ebe 18fb 3d3d f221 193d a08d ce3d
000000e0: 560d 253c 3b23 8bbc b8dd a1bb 1caf e6bd
000000f0: 5d82 823d 28a3 a53d 5284 62bd 304d f03d
0.060526118 0.055921797 -0.036898363 0.14898102 -0.079527855 0.1494826 -0.09339172 0.03925431
-0.060224116 0.054428447 0.099226415 0.12527934 -0.029750578 0.14446968 0.011127958 -0.07941293
-0.14627124 -0.16502269 -0.12073936 -0.08894102 -0.051735424 -0.09176475 0.0684031 0.14097598
-0.11035468 0.097400196 0.057332087 0.074363895 -0.09803622 -0.06005168 -0.12494552 -0.07679716
0.06460278 0.11850555 0.02538369 -0.019071704 0.021835096 -0.055310577 -0.038456585 0.12184759
-0.018513607 -0.118482746 0.0034096837 -0.028833233 0.050246164 -0.15802304 0.060101446 0.12867789
0.036522638 0.010343291 0.067920886 0.023830993 -0.15514682 0.04638204 0.03738589 0.100856066
0.01007398 -0.016984573 -0.004939761 -0.11263868 0.06372521 0.0808776 -0.05530197 0.11733472

decoder.0.weight f4 [64, 3, 4, 4]
00000000: e5bf b1bd f40f 76bc cb7b a6bc 79e9 b53d
00000010: ceaf 9dbc 9926 f8bd bc65 ce3d 1095 303d
00000020: 9208 b7bc 8758 f8bd c445 cf3d 6820 99bd
00000030: 9f60 8dbd 0edf 5a3d 4dfb 1dbb 9393 973d
00000040: 55b9 dfbd f645 5a3d f54c c4bd 4d29 4abc
00000050: 767d c73d d62c 043e b191 67bd 6b26 123e
00000060: 340c ec3c f626 9e3d 0693 e23d 8f63 10be
00000070: d8a9 333c 33be b6bd 9636 c63d 0769 0bbe
00000080: 0a1d 173e 6db9 c2bd da66 133e 529b dd3d
00000090: ec0d e1bd f95a c33d 23e5 86bd cb9b 023d
000000a0: ba17 c63d e337 c9bd d54e f5bd 036e eabc
000000b0: ca6f 6ebc 9f6d 953d 10de 1dbe fde4 e3bd
000000c0: bd0e b93b 6198 32bc fcdf ecbd acf8 11bd
000000d0: 31c3 0cbe f6a4 08bd d7cc d13d 040e a93c
000000e0: 75f7 0abe 622a e0bd 46c6 4dbd 3d62 80bd
000000f0: e143 b1bd 5795 043e 8f83 e2bd cf34 013e
00000100: 9cc0 c93c 792e c2bc 1ae1 1abd 5718 5fbd
00000110: 4435 8b3d f32d edbc 4211 b8bd 41ae cc3d
00000120: bd45 003e 5421 643d 57e0 0d3d 717f 953c
00000130: a723 0b3e 3b17 e6bd 4499 fcbc f260 993d
00000140: 9ad4 9f3c ac0a bf3b b1ab 093c f9ba 25bd
00000150: 6590 18bd 80d2 293e 4fa6 b7bd 806b 803c
00000160: 33a4 ce3d 4601 623c d99d 143e 48ea 803c
00000170: 1f8a 3b3d 55c2 8ebb b23c 90bc 6b37 d5bd
00000180: f4a6 18be 4880 a43d 0a02 603c a3f3 11be
00000190: 05fa 053d e08b 4cbd d008 22bd db4f 823d
000001a0: 4a8d fb3d 2121 853d 531d 60bd a6b0 d13d
000001b0: ef32 67bd 7891 18be dd30 1d3b 98fe 0ebb
000001c0: a8c5 d53d 4c28 59bd 571f a23d 8f36 04be
000001d0: 9bf2 ec3c 2070 b9bd 0091 bc3d a3ee 063d
000001e0: df29 d13d 78e1 2abd 107c 0dbe d03f 633d
000001f0: a0d9 fb3c 9902 ef3d 4a44 a23d 203b 09be
00000200: b311 fe3d ffee cabd cbf1 783d d857 cdbb
00000210: f360 163d 1a04 0bbe 68e9 9cbd ac08 66bc
00000220: e5d7 0bbe 2154 fe3c cd5c dfbd 0b30 3fbd
00000230: 840a 84bd 9ef4 0bbe b297 f3bd 5880 debd
00000240: 43fe f3bd 6536 9f3d 1fa0 ed3d 9eb4 e4bd
00000250: c7e7 e93d f8ff 1d3e b7e0 343d 4880 bebd
00000260: c978 003e 7fa4 0f3e 1125 a43d c846 803c
00000270: 39f2 80bd 268b 463d 0cb4 7fbd 65a0 0c3d
00000280: 338e 8cbd a92c b43d f783 1a3d ea7a ac3d
00000290: 675f 0a3c dd54 bb3d 31b5 52bd bd69 cbbd
000002a0: fef8 fabc 9c1e 8c3d d72c 0b3e bd0d f13d
000002b0: 3896 213e 6410 4dbd 9911 f1bd c41b 163e
000002c0: 2b6b dabd 62c7 0b3d 1cb9 f13b 4e75 0d3e
000002d0: d69f 263d b099 4f3d bbca 0c3e 603c 143e
000002e0: 852a 68bd 2720 f03d dc73 173e 677f b1bd
000002f0: 57b8 07be 4438 b23d 6495 24bc 79a3 dabc
00000300: 7248 2abc ad47 8a3d 0ed6 7e3d 7ec9 b63d
00000310: a748 6d3c 28fd a6bc 00dd d0bd 76fa d73d
00000320: 0dc5 b13c 7c72 acbc 20e1 e0bd 68d1 c83c
00000330: 6bd4 0abe d1fb afbc 55aa b03d f99f 95ba
00000340: be53 d8bd 7d4c e1bd aca7 0cbe 0b8d b2bd
00000350: ab6a 80bb 382a d33d 4055 89bd eee4 0d3e
00000360: 14db ffbc 01f2 eabd df77 c3bd 3836 89bd
00000370: 7679 afbc 2fb7 a23d 3293 fcbd 3026 5cbd
00000380: f7ec 74bd 42b3 0d39 44ee 0ebe a595 e63d
00000390: d890 f33c bfae 913d b781 aa3d e64a ab3c
000003a0: 7b5e e13d 0c72 bfbd 69c6 8c3b f493 0d3c
000003b0: c3be 1f3b 35cd 7d3d f320 1abd 7b85 99bd
000003c0: c907 c8bd ec1c 653d f774 24bc e8d5 6e3d
000003d0: 0ec8 2dbd 8ee8 cb3d 4ccd 263d 92f6 293b
000003e0: 2d5c 86bd 263b ce3d cd2d 93bd 623c ebbd
000003f0: e7ff 853d 902d 033e 688e 1a3e 4370 013e
-0.08679179 -0.015018452 -0.020322701 0.08882422 -0.01924887 -0.12116737 0.10077998 0.043110907
-0.022342954 -0.1212626 0.101207286 -0.07476884 -0.06903195 0.053435378 -0.0024106086 0.074011944
-0.10924021 0.053289376 -0.09584991 -0.012338948 0.09740727 0.12907729 -0.056535427 0.14272468
0.028814413 0.07722275 0.11063199 -0.14100479 0.010965787 -0.08922996 0.0967838 -0.13614284
0.14757171 -0.095080234 0.14394704 0.108206406 -0.109889835 0.09538836 -0.06586673 0.031886857
0.09672494 -0.09825113 -0.11977927 -0.02861691 -0.01455302 0.07296299 -0.15416741 -0.111276604
0.005647509 -0.010900588 -0.11566159 -0.035637543 -0.13746335 -0.033360444 0.10244148 0.020636566
-0.1357096 -0.10945584 -0.050237916 -0.062687375 -0.08655525 0.12947594 -0.11060249 0.12617801
0.024627976 -0.0237038 -0.03781233 -0.05446657 0.06797269 -0.028952574 -0.08987667 0.09994174
0.12526603 0.055695847 0.034637775 0.018249245 0.13587819 -0.112348996 -0.030834801 0.07489194
0.019510556 0.0058301296 0.008402751 -0.040461514 -0.03724708 0.16584206 -0.08967268 0.01567626
0.10089912 0.013794249 0.14513339 0.015736714 0.04578602 -0.0043566623 -0.017607067 -0.10410961
-0.14907438 0.0803228 0.013672361 -0.14253096 0.03270914 -0.049938083 -0.039559186 0.063628875
0.12282808 0.065004595 -0.054715466 0.10238771 -0.05644506 -0.14899242 0.0023985424 -0.002181923
0.104380906 -0.053016946 0.07916134 -0.12911437 0.028924277 -0.09054589 0.09207344 0.032942425
0.102130644 -0.04171893 -0.13816857 0.05548078 0.03074342 0.11670417 0.07923181 -0.1340146
0.124057196 -0.09908866 0.060777467 -0.0062665753 0.03671355 -0.13575783 -0.07661706 -0.0140401535
-0.13656576 0.031045975 -0.10906372 -0.046676677 -0.06447318 -0.13667533 -0.11894168 -0.108643234
-0.11913731 0.07774047 0.11602806 -0.111672625 0.11421161 0.15429676 0.044159617 -0.093018115
0.12546076 0.14027594 0.08014882 0.015658751 -0.062962 0.048472546 -0.062427565 0.03433265
-0.0686306 0.08797581 0.037723508 0.084218815 0.008445597 0.09147046 -0.05144233 -0.09932277
-0.030636307 0.06841776 0.13591324 0.117701985 0.1577996 -0.05006446 -0.117709346 0.14659029
-0.10664972 0.034125693 0.007376803 0.1381428 0.040679775 0.050683677 0.1374921 0.14476156
-0.056681175 0.117248826 0.1479029 -0.08666878 -0.13253914 0.08702138 -0.010045383 -0.026689278
-0.010393249 0.06751952 0.062215857 0.0892515 0.014482654 -0.020384386 -0.101984024 0.105458185
0.021700406 -0.021050684 -0.10980439 0.024513915 -0.13557594 -0.02148238 0.08626238 -0.0011415473
-0.105628476 -0.11000917 -0.13735837 -0.08718308 -0.003918966 0.10310787 -0.06705713 0.13856861
-0.031232394 -0.1147194 -0.09544348 -0.066997945 -0.021420222 0.07945096 -0.12332763 -0.053747356
-0.0597963 0.00013513587 -0.13958079 0.11259011 0.029732153 0.07113408 0.083255224 0.020909738
0.11004349 -0.093479246 0.0042961133 0.008641232 0.0024375177 0.06196328 -0.03762908 -0.074961625
-0.0976711 0.055935785 -0.010037652 0.058309466 -0.042427115 0.09956466 0.04072313 0.002593432
-0.0656055 0.100698754 -0.0718647 -0.114861265 0.0654295 0.1281035 0.15093386 0.1264048

decoder.0.bias f4 [3]
00000000: 9c31 3f3d 2625 05bc 0094 763c
0.04667817 -0.008126533 0.015049934
